8.PyTorchInProduction/FizBuz_with_ONNX/fizbuz_package/fizbuz.onnx (onnx, 9413 bytes, 4 tensors)

1 f4 [100, 10]
-1.0127736 0.855281 0.67986107 -0.85107917 0.7582821 1.0633646 1.528297 1.2931272
1.2893202 0.48298112 -3.9519587 -2.3753798 2.4233396 3.525971 -3.4324036 -2.4274538
-5.0530477 3.684303 -4.391386 -2.3636522 -2.1738033 -1.5216712 -5.2036943 0.44409811
-1.8365161 -0.36533368 2.9223003 1.0752218 1.2137445 -1.6002651 -1.2695477 1.0196335
-4.0721884 0.9409842 -1.7232203 -1.7618463 -2.4394639 -2.210556 -1.9037403 0.9229164
1.4046662 -3.2038553 -0.920696 -8.476738 1.1334264 -3.3545046 -1.5024496 4.447157
1.1741807 -3.3782732 -4.252053 -2.7624485 2.7857819 -2.687061 -4.1922817 -2.149929
2.2907016 -2.195095 -4.2107906 -2.7638187 -2.0246468 -0.51923573 -0.7137715 -0.12116394
-2.3216362 -0.23910417 1.4973756 -0.2886601 -2.3906481 -0.67067635 -1.0716592 -0.42107713
-1.4434069 -1.2808975 -1.4525036 -1.7341775 -1.920759 -0.25595656 -1.1916696 -0.6272327
-2.500541 -0.8265342 5.862563 -5.6333475 -2.3859496 -0.45366713 5.937587 -5.3377385
-2.5748565 -0.75371045 -3.7797098 0.7928388 0.155765 -0.08365274 2.8269649 1.2467976
0.012818389 0.5635748 -3.9141855 0.630432 3.3103814 -4.0191693 -2.4491436 -1.7333771
-4.853414 -2.478536 -0.15230969 -1.7263921 1.9845555 -3.5061078 -0.7160234 0.64353925
2.0639002 -2.6128168 -0.7329887 -0.46512294 -1.6849452 2.188957 -0.18557905 0.23539707
3.0385609 -1.8617686 0.48307645 -0.59159416 -2.4622946 -1.7879957 0.52141625 0.62118167
0.40582848 -1.364799 -4.182625 -1.1008276 -3.827351 3.923008 -4.4861226 -1.3559266
-3.0475318 3.6791186 -5.024196 -1.3177048 5.223539 -3.3208175 -2.0250401 0.2987602
-7.803789 -4.386291 -2.0210526 -2.3844712 -7.242 -3.3660204 -1.4003474 1.7292806
-1.3621763 1.5200589 -2.0385253 -1.9642355 0.10277818 -1.2169162 -0.8415795 0.7682618
1.0766255 -3.9815657 -3.179668 -4.4463778 -1.625268 -2.0948539 -2.3941977 -3.0241272
0.9308988 -4.702054 -0.15395111 -2.5469282 1.0066842 -2.445954 -0.61225325 -2.1513133
1.7324425 -2.5078547 0.7599901 -2.4172332 4.986919 -3.647954 -2.3642972 -1.3849058
4.139587 -3.5480871 -1.7804579 -1.6417077 -7.2240133 -3.8334434 -0.9370245 -9.423433
-3.9063962 -2.1929655 -0.93637365 7.0055037 -4.4278955 -2.2847695 -1.2580696 6.004227
0.9726422 -0.5829008 -1.0997988 -5.771674 0.919197 -0.8920343 -2.3428817 -5.612406
0.56459594 -0.9846278 -0.8001057 -0.5392969 -1.9634844 0.5593475 -1.5805755 0.3584873
0.5008515 0.32852495 -2.1331346 1.1291374 4.96681 -4.5609245 4.831239 -4.83753
4.8371105 -4.480622 4.602452 -4.99729 4.8505654 -4.676044 -1.7019893 0.97048455
-0.61363333 -0.42578503 0.34721094 -2.6031556 1.01496 -3.3179094e-05 -1.9675338 0.8235367
-0.6656468 -0.83226734 -0.7330353 -0.88599324 -0.6709442 0.1568381 1.0574147 -0.2864328
-1.0303695 -0.7786152 0.2284007 -1.5075005 2.163751 -1.6141952 0.12542698 -1.4185872
00000000: 91a2 81bf b2f3 5a3f 600b 2e3f 53e0 59bf
00000010: c71e 423f 551c 883f 3c9f c33f 3185 a53f
00000020: 7208 a53f 4d49 f73e e4ec 7cc0 3906 18c0
00000030: ff17 1b40 82a9 6140 80ac 5bc0 675b 1bc0
00000040: 91b2 a1c0 9fcb 6b40 3c86 8cc0 1446 17c0
00000050: 981f 0bc0 1fc6 c2bf aa84 a6c0 d460 e33e
00000060: f612 ebbf 040d bbbe f806 3b40 dea0 893f
00000070: fb5b 9b3f 7dd5 ccbf 8a80 a2bf 5a83 823f
00000080: 5e4f 82c0 57e4 703f 7c92 dcbf 2e84 e1bf
00000090: 2d20 1cc0 c079 0dc0 c3ad f3bf 4044 6c3f
000000a0: 1acc b33f f70b 4dc0 bcb2 6bbf b8a0 07c1
000000b0: 1e14 913f 34b0 56c0 4550 c0bf 1c4f 8e40
000000c0: 8e4b 963f a135 58c0 d110 88c0 f5cb 30c0
000000d0: 404a 3240 cff8 2bc0 2c27 86c0 7098 09c0
000000e0: db9a 1240 707c 0cc0 ccbe 86c0 68e2 30c0
000000f0: d093 01c0 a2ec 04bf bbb9 36bf cd24 f8bd
00000100: b095 14c0 b9d7 74be 01aa bf3f 42cb 93be
00000110: 6100 19c0 72b1 2bbf 212c 89bf 6c97 d7be
00000120: 8fc1 b8bf 73f4 a3bf a3eb b9bf 87f9 ddbf
00000130: 6edb f5bf bd0c 83be a188 98bf 5292 20bf
00000140: dd08 20c0 bf97 53bf 1e9a bb40 6244 b4c0
00000150: 66b3 18c0 0f47 e8be b600 be40 c1ce aac0
00000160: 73ca 24c0 2bf3 40bf c4e6 71c0 7cf7 4a3f
00000170: dc80 1f3e 2152 abbd feec 3440 1097 9f3f
00000180: 3804 523c 7046 103f 0482 7ac0 fe63 213f
00000190: 4add 5340 099d 80c0 c5be 1cc0 4ddf ddbf
000001a0: 2b4f 9bc0 55a0 1ec0 12f7 1bbe 6bfa dcbf
000001b0: ea05 fe3f 1264 60c0 4f4d 37bf fdbe 243f
000001c0: f116 0440 6438 27c0 26a5 3bbf 9824 eebe
000001d0: 49ac d7bf df17 0c40 6f08 3ebe ee0b 713e
000001e0: c877 4240 6f4e eebf cc55 f73e b772 17bf
000001f0: 3c96 1dc0 0bdd e4bf 897b 053f c305 1f3f
00000200: c0c8 cf3e bcb1 aebf 10d8 85c0 ebe7 8cbf
00000210: 52f3 74c0 9012 7b40 518e 8fc0 018f adbf
00000220: c30a 43c0 ae76 6b40 37c6 a0c0 8daa a8bf
00000230: 3b27 a740 4688 54c0 429a 01c0 19f7 983e
00000240: a4b8 f9c0 7f5c 8cc0 ed58 01c0 2d9b 18c0
00000250: 77be e7c0 e16c 57c0 953e b3bf 1159 dd3f
00000260: cb5b aebf 4a91 c23f 3377 02c0 126c fbbf
00000270: 5e7d d23d e9c3 9bbf c171 57bf ceac 443f
00000280: ddce 893f f9d1 7ec0 ae7f 4bc0 ba48 8ec0
00000290: c808 d0bf 1612 06c0 893a 19c0 4d8b 41c0
000002a0: 624f 6e3f 3a77 96c0 5ca5 1dbe df00 23c0
000002b0: 07db 803f 838a 1cc0 a1bc 1cbf 1eaf 09c0
000002c0: adc0 dd3f b180 20c0 b68e 423f f3b3 1ac0
000002d0: d794 9f40 1478 69c0 a550 17c0 9844 b1bf
000002e0: 7f77 8440 dc13 63c0 0be6 e3bf 7a23 d2bf
000002f0: 1e2b e7c0 2357 75c0 d6e0 6fbf 62c6 16c1
00000300: 6502 7ac0 8c59 0cc0 2fb6 6fbf 162d e040
00000310: 52b1 8dc0 aa39 12c0 6d08 a1bf a122 c040
00000320: 14ff 783f fd38 15bf 35c6 8cbf 8eb1 b8c0
00000330: 7f50 6b3f 5c5c 64bf c6f1 15c0 d498 b3c0
00000340: 5c89 103f 9110 7cbf bad3 4cbf 5d0f 0abf
00000350: 7553 fbbf 6631 0f3f 4c50 cabf a68b b73e
00000360: ce37 003f 6c34 a83e 4785 08c0 9387 903f
00000370: 1cf0 9e40 18f3 91c0 8399 9a40 0ccd 9ac0
00000380: 9cc9 9a40 4161 8fc0 4947 9340 cde9 9fc0
00000390: d537 9b40 27a2 95c0 c9da d9bf ad71 783f
000003a0: 1317 1dbf 7f00 dabe a2c5 b13e 1a9a 26c0
000003b0: 36ea 813f c829 0bb8 26d8 fbbf 4dd3 523f
000003c0: d467 2abf 790f 55bf 34a8 3bbf 74d0 62bf
000003d0: 00c3 2bbf 2b9a 203e 5d59 873f 52a7 92be
000003e0: 26e3 83bf 5353 47bf e0e1 693e c7f5 c0bf
000003f0: e57a 0a40 f39d cebf ee6f 003e 4494 b5bf

2 f4 [100]
-0.14095084 0.38551366 -0.7558232 2.6415749 0.85810745 -0.010310208 -0.5980635 -0.18423817
-0.3086325 -0.27603033 0.5656349 -0.68919754 0.4954312 1.5290488 2.0105934 -0.46836028
0.90092415 0.2206756 -0.53640735 -2.8941057 1.1360321 -0.7748457 2.3323834 -0.8463481
-0.34402537 -0.42107186 1.685108 0.71352696 3.1293914 0.27760363 -0.5609398 -0.014057355
-1.2287917 1.9157457 2.2190652 -0.5530803 0.26777312 -0.5075204 0.431096 -0.31869754
-0.054284394 0.26765394 0.87943923 1.3971698 0.18582374 0.2194261 -0.24632467 0.5758976
-0.124382496 -1.5109698 7.121718 -0.4102616 -1.7194321 0.44018692 0.60281295 0.76233923
0.9575967 0.68928194 0.747035 -0.37021807 -0.3934688 2.0446846 -0.7050652 0.3893517
-0.79122794 -0.36397907 -3.0478957 -3.3103611 -2.5855267 2.628098 -0.6554256 4.7493696
0.09261477 0.093568474 0.71669173 -0.8952551 0.20705989 -0.42470062 0.16390976 -1.0329921
1.9859097 0.5556378 -0.74148816 1.5055703 0.73750836 0.29253292 1.076221 -1.3618753
0.8962091 -0.4664947 2.9304707 -1.5284956 0.25100145 -0.8283819 2.8583903 3.1736794
-1.0648843 -2.5814157 1.222251 4.8366437
00000000: 6b55 10be 0c62 c53e a17d 41bf 900f 2940
00000010: eeac 5b3f 26ec 28bc b11a 19bf eea8 3cbe
00000020: 1405 9ebe d953 8dbe 73cd 103f 406f 30bf
00000030: 29a9 fd3e dfb7 c33f 90ad 0040 ebcc efbe
00000040: f7a2 663f c9f8 613e fe51 09bf 0739 39c0
00000050: 8069 913f 4a5c 46bf c545 1540 45aa 58bf
00000060: 1824 b0be bb96 d7be 9eb1 d73f b4a9 363f
00000070: f347 4840 1022 8e3e c099 0fbf d250 66bc
00000080: 0c49 9dbf 2837 f53f 2a05 0e40 ac96 0dbf
00000090: 8f19 893e dbec 01bf 9db8 dc3e 532c a3be
000000a0: 5059 5ebd f009 893e ee22 613f 76d6 b23f
000000b0: 9448 3e3e 3cb1 603e 893c 7cbe 066e 133f
000000c0: 40bc febd 7567 c1bf 1de5 e340 cf0d d2be
000000d0: 5a16 dcbf 2e60 e13e f351 1a3f aa28 433f
000000e0: 0f25 753f c874 303f b03d 3f3f 398d bdbe
000000f0: be74 c9be 1ddc 0240 277f 34bf 1b59 c73e
00000100: ea8d 4abf 775b babe b910 43c0 f5dc 53c0
00000110: 4579 25c0 c232 2840 f9c9 27bf d6fa 9740
00000120: d0ac bd3d d4a0 bf3d 1c79 373f 702f 65bf
00000130: 8207 543e 5c72 d9be f6d7 273e 1639 84bf
00000140: 4a32 fe3f 473e 0e3f 2bd2 3dbf 87b6 c03f
00000150: 59cd 3c3f e0c6 953e 9cc1 893f ee51 aebf
00000160: f66d 653f 65d8 eebe d58c 3b40 bea5 c3bf
00000170: 4383 803e d610 54bf deef 3640 901d 4b40
00000180: 214e 88bf ea35 25c0 b972 9c3f c9c5 9a40

3 f4 [4, 100]
0.05701802 -1.57678 -1.5752772 -1.5429006 -0.65930676 -1.030518 -0.59086937 0.19064407
-8.556516 1.9249017 -2.0450106 -1.9069549 2.195687 -6.4074993 3.7069907 -0.9150185
-0.7010691 -0.33670792 -6.2670326 -10.288635 1.9680779 0.21203206 1.7826403 -1.0753278
-0.21506108 0.8105835 -1.8856184 0.3256077 4.5229907 1.4898924 -0.3318263 2.2525675
-0.92499495 -2.5873013 -2.542589 -1.0019206 1.8812616 -4.3042803 -0.24242021 2.4999068
2.5701082 -1.0928886 -0.825467 -0.8395062 1.6287491 0.5255031 0.40922838 1.3438272
0.5218712 -6.849742 -4.2231627 -1.6683681 -3.9466715 0.9464479 -3.2513394 -3.9548414
0.13390975 2.124512 2.188618 -2.486204 -0.7051856 -1.5350475 -0.5966395 -0.5256065
-2.8467462 -4.0555673 -11.7613735 3.5564156 -3.828506 2.4505718 -2.979653 8.636622
0.9111278 0.11983844 -1.0211029 -0.18401766 1.3074373 1.6377016 1.8231459 -1.2944038
-1.1876142 0.7705672 -1.770376 -2.0847285 2.132629 -2.1766315 2.3647583 0.7164474
1.3237027 -2.7738578 5.453493 0.5436539 3.7246132 -2.3897004 5.1641116 -2.0020194
-2.3060331 -5.2716055 -0.61082363 7.4156036 -0.399129 4.508305 -0.36443347 1.6136588
3.1728618 -1.5451077 -0.40833893 0.40695712 4.535081 -2.235793 0.7001456 0.38307402
-2.0685785 -1.8251743 -3.1605864 -0.01531454 0.103915796 -0.8055745 2.7344897 6.9207997
-2.8646147 -1.0216862 -2.2582018 -0.040013675 -0.29030013 -1.3128052 -3.0063307 1.3729523
-6.966654 -0.5554166 -0.53261644 0.2802842 -0.122989714 2.6466599 2.5295506 -0.07715941
-2.1266274 2.7903945 0.8292595 -1.2632735 -1.7432752 -0.9243504 -0.9186493 0.7289316
-0.6474804 -0.9423894 -0.4791823 -0.53295845 -1.1638095 5.090183 1.9884832 0.60875
3.430624 -1.6518642 2.7343264 4.6197634 -0.066810064 -1.2625507 -2.77334 1.6207924
1.1458027 1.0238535 0.66072637 0.5136169 0.9769523 3.4146485 6.562896 -2.3674567
3.822373 9.602089 2.0161054 -10.436165 -1.2296746 0.6939286 0.44691092 -1.2140738
-1.2078379 -0.77463657 -2.092864 0.36726162 6.1919584 -0.86879146 3.0075152 0.33457
-2.8728764 1.3598431 -1.9315896 4.9569774 -1.7504365 -0.05328422 -7.4780116 -7.054823
-1.2518644 1.5703329 -7.672482 3.0414128 -0.3663045 4.649744 0.7002416 -10.862778
-0.75185955 -1.0000768 -0.15446174 -1.1808741 -0.58862525 2.7072139 0.011940079 -0.24441442
1.3578509 -1.0344505 1.625622 0.6336683 -1.1333858 1.0336217 -3.3053691 -0.4265715
1.978413 -1.0693952 2.9429946 2.3540165 -0.7174733 0.032723997 5.2523823 0.358312
0.23438874 1.3800465 1.0540895 -0.03609227 -2.7013178 -1.2435292 0.20560469 -1.6007838
-2.287788 2.1839223 0.7973588 -0.38674617 -1.3192888 1.0372545 -0.05493137 1.8263079
-0.7583521 -0.68010956 0.60619426 -1.1993914 -1.3678551 0.30218026 -0.5020235 -1.7471832
-0.6238585 1.1507255 4.6507564 1.2849796 0.67105275 -0.11089014 1.3762605 0.36470962
00000000: ba8b 693d edd3 c9bf afa2 c9bf c47d c5bf
00000010: 54c8 28bf 04e8 83bf 3743 17bf 3338 433e
00000020: 7de7 08c1 2e63 f63f 74e1 02c0 1917 f4bf
00000030: 2386 0c40 3c0a cdc0 563f 6d40 a73e 6abf
00000040: 4479 33bf fb64 acbe 888b c8c0 409e 24c1
00000050: fae9 fb3f ef1e 593e 8f2d e43f 57a4 89bf
00000060: f938 5cbe 6682 4f3f f25b f1bf 0db6 a63e
00000070: 57bc 9040 cbb4 be3f 23e5 a9be 112a 1040
00000080: 78cc 6cbf 5896 25c0 c7b9 22c0 ef3e 80bf
00000090: 2ecd f03f aabc 89c0 013d 78be 79fe 1f40
000000a0: a77c 2440 c6e3 8bbf ce51 53bf e1e9 56bf
000000b0: da7a d03f 5f87 063f 6286 d13e 8802 ac3f
000000c0: 5a99 053f 1631 dbc0 2624 87c0 168d d5bf
000000d0: 4496 7cc0 694a 723f f215 50c0 1f1c 7dc0
000000e0: a31f 093e 01f8 0740 5112 0c40 f71d 1fc0
000000f0: 0b87 34bf 707c c4bf 5ebd 18bf 268e 06bf
00000100: 1731 36c0 35c7 81c0 962e 3cc1 509c 6340
00000110: 3e06 75c0 2bd6 1c40 a2b2 3ec0 9b2f 0a41
00000120: ac3f 693f db6d f53d 80b3 82bf 206f 3cbe
00000130: 1b5a a73f 35a0 d13f d85c e93f 06af a5bf
00000140: be03 98bf e443 453f ae9b e2bf 316c 05c0
00000150: fe7c 0840 ee4d 0bc0 3358 1740 1969 373f
00000160: 176f a93f e386 31c0 0483 ae40 e72c 0b3f
00000170: 1060 6e40 daf0 18c0 6740 a540 1621 00c0
00000180: 0c96 13c0 feb0 a8c0 f05e 1cbf a04c ed40
00000190: a35a ccbe 0944 9040 0697 babe 5f8c ce3f
000001a0: 2b10 4b40 17c6 c5bf cd11 d1be af5c d03e
000001b0: 621f 9140 3c17 0fc0 be3c 333f 4722 c43e
000001c0: 9763 04c0 509f e9bf 0c47 4ac0 d6e9 7abc
000001d0: ced1 d43d 213a 4ebf e101 2f40 3177 dd40
000001e0: d955 37c0 9dc6 82bf 6186 10c0 61e5 23bd
000001f0: 38a2 94be 000a a8bf b967 40c0 e7bc af3f
00000200: d4ee dec0 c82f 0ebf 8d59 08bf 6981 8f3e
00000210: 08e2 fbbd e062 2940 28e4 2140 c105 9ebd
00000220: aa1a 08c0 d395 3240 5a4a 543f f2b2 a1bf
00000230: a423 dfbf 3aa2 6cbf 9a2c 6bbf 439b 3a3f
00000240: 47c1 25bf 6f40 71bf 6257 f5be f76f 08bf
00000250: b6f7 94bf c7e2 a240 9e86 fe3f 0ad7 1b3f
00000260: 588f 5b40 4970 d3bf 34ff 2e40 1ad5 9340
00000270: b7d3 88bd 439b a1bf 677e 31c0 2076 cf3f
00000280: aaa9 923f a20d 833f 5d25 293f 667c 033f
00000290: 8c19 7a3f 9a89 5a40 3e03 d240 6984 17c0
000002a0: c2a1 7440 28a2 1941 df07 0140 88fa 26c1
000002b0: fa65 9dbf 4ea5 313f 82d1 e43e c566 9bbf
000002c0: 6f9a 9abf 954e 46bf 7cf1 05c0 b709 bc3e
000002d0: 8624 c640 1e69 5ebf 217b 4040 c24c ab3e
000002e0: 35dd 37c0 570f ae3f 543e f7bf 8f9f 9e40
000002f0: 4e0e e0bf 8e40 5abd df4b efc0 1cc1 e1c0
00000300: 183d a0bf ab00 c93f f984 f5c0 82a6 4240
00000310: 438c bbbe b4ca 9440 0943 333f f0cd 2dc1
00000320: de79 40bf 8402 80bf 382b 1ebe e226 97bf
00000330: 25b0 16bf fe42 2d40 52a0 433c c647 7abe
00000340: 0fce ad3f e068 84bf 6214 d03f 1638 223f
00000350: c912 91bf b74d 843f 2b8b 53c0 9467 dabe
00000360: a33c fd3f f1e1 88bf 065a 3c40 35a8 1640
00000370: 55ac 37bf 9909 063d 8413 a840 ac74 b73e
00000380: 9a03 703e 5da5 b03f 68ec 863f 7dd5 13bd
00000390: 64e2 2cc0 f72b 9fbf 098a 523e 7ce6 ccbf
000003a0: 1e6b 12c0 62c5 0b40 b51f 4c3f 9803 c6be
000003b0: 75de a8bf c1c4 843f b7ff 60bd 75c4 e93f
000003c0: 5d23 42bf a91b 2ebf 8c2f 1b3f a885 99bf
000003d0: e015 afbf 5fb7 9a3e 9d84 00bf b3a3 dfbf
000003e0: 31b5 1fbf f94a 933f ffd2 9440 367a a43f
000003f0: 1dca 2b3f 5f1a e3bd 4e29 b03f 38bb ba3e

4 f4 [4]
0.0004719558 -0.17894937 -0.6728586 0.516636
00000000: d670 f739 813e 37be 7640 2cbf 4242 043f
